model.pth (torch, 13044 bytes, 6 tensors)

layer1.weight f4 [64, 5]
000000 f9 00 c2 3e 30 cb 65 3e 2d ed aa be cf 0e d2 3e
       0.37891367 0.22440791 -0.33384076 0.41026923
000010 a4 9e e7 be 78 a7 00 3f 08 80 93 3e 56 3b f0 bd
       -0.4523822 0.5025554 0.28808618 -0.117300674
000020 5b e5 76 be 23 4d 75 be 1f 64 01 bf ae fe 82 be
       -0.2411093 -0.23955207 -0.505434 -0.2558493
000030 96 5b 84 bd 77 db f6 3e b8 95 13 3e 57 ed 56 be
       -0.06462781 0.48214313 0.14412582 -0.20988975
000040 eb ad f1 3e 03 86 83 3c 07 ac 4b 3e 56 0b 13 be
       0.47203 0.016055113 0.19889842 -0.14359793
000050 17 bf a4 3e 9f fa 00 3e a4 91 37 bd ad 19 e0 3e
       0.3217704 0.12595604 -0.044816628 0.4376959
000060 c2 1a 56 3e 3d e7 07 3e d6 42 d7 be 2a 3e 0a 3d
       0.20908645 0.13271804 -0.4204318 0.03375069
000070 c7 cd 9a 3e cc b2 0f 3d eb 45 11 3e 8c e6 ce 3e
       0.3023512 0.035082623 0.14186828 0.40410268
000080 3f 93 ab be d9 a9 9c 3d 62 85 8d 3e 43 ae 6b 3e
       -0.33510777 0.07649583 0.27640826 0.23015694
000090 b7 5d ba be 42 58 67 be 9c 11 8d be f0 b5 b8 bd
       -0.36399624 -0.22592261 -0.27552497 -0.09019077
0000a0 7c 12 84 be c1 27 bb be 5a a9 9e be 67 5f 7a 3e
       -0.25795352 -0.36553767 -0.3098858 0.24450456
0000b0 e9 b9 e0 be 11 0d b2 3d 97 2d 90 bd d9 85 c6 be
       -0.43891838 0.086938985 -0.070399456 -0.38773993
0000c0 63 14 8e bd ce 93 71 be 28 35 08 3f e9 e2 d3 3e
       -0.06937482 -0.2359154 0.5320611 0.41384056
0000d0 3a a9 65 3e be 23 fb 3e d7 ca 7b 3e 7a 99 77 be
       0.22427836 0.49050707 0.24589096 -0.2417964
0000e0 b2 0f b2 be 5a 6d f1 bd f0 76 3e bd 25 20 a5 3e
       -0.347776 -0.11788435 -0.046500146 0.32251087
0000f0 50 b3 fd be 07 3e f9 3e fd 57 d0 3e 0c ac ec 3e
       -0.49550867 0.48680136 0.4069213 0.4622501
000100 f9 a2 19 3e 26 bb eb be 94 5c 06 3f 83 95 61 3e
       0.15003575 -0.4604122 0.52485013 0.2202969
000110 1a e0 be be d0 3f 29 bd ff 18 01 3f 21 ef 8a be
       -0.3728035 -0.041320622 0.50428766 -0.27135566
000120 05 d5 1c 3e ed d1 23 3d a6 ee 99 be 51 20 ec be
       0.15315636 0.039995123 -0.30064887 -0.46118405
000130 ff 2b ef bd 81 50 cc be a7 f4 19 3d 9a 58 ae 3e
       -0.116783135 -0.3990517 0.037586834 0.34051973
000140 2f 44 e2 3e a1 21 be 3e fd 0a a3 be e3 5b a6 bd
       0.44192645 0.37135032 -0.3184432 -0.08122995
000150 10 53 b7 3e 9b 74 47 be ec c6 0f be 0b 42 c0 bb
       0.3580556 -0.19478075 -0.14040726 -0.005867248
000160 2c c3 8e 3e 31 4b cc 3e 8e d0 d8 be f7 bd 26 3e
       0.2788328 0.39901116 -0.42346615 0.16283403
000170 a7 4d 2a be ea 17 06 3f 21 80 6e bc 97 da e6 be
       -0.16631185 0.5238024 -0.0145569155 -0.45088646
000180 f5 18 99 be d5 b5 d2 be f8 85 d5 be 9f 23 f6 3d
       -0.29901853 -0.41154352 -0.41703773 0.12018513
000190 09 7a cc 3d bc fb e8 3e df be ee 3e c4 48 a9 bd
       0.09984214 0.45504558 0.46629998 -0.08265832
0001a0 09 d0 c0 be 96 6a c9 3e 9a 98 56 3e cf 24 2e be
       -0.37658718 0.3933913 0.2095665 -0.17006229
0001b0 f7 03 95 3e 65 69 c5 be f2 c1 50 be d2 f6 0e 3f
       0.29104587 -0.38556972 -0.20386484 0.5584537
0001c0 e8 f6 4d 3e 59 d5 e5 bd fe 30 e4 be 6b d0 a7 bd
       0.20113719 -0.112223335 -0.44568628 -0.081940494
0001d0 76 e2 83 3e 24 8e ce 3d e6 9c 99 be f2 dc cd be
       0.25758713 0.10085705 -0.30002517 -0.4020763
0001e0 38 1a 71 be 63 2b 54 3e 07 69 ca 3e b6 41 32 3e
       -0.23545158 0.20719676 0.39533255 0.17407879
0001f0 08 d3 c4 3d 96 70 39 3e fd 0f 8b 3d 7c 83 cd 3d
       0.096105635 0.18109354 0.06790159 0.10034844
000200 b0 1e 44 bd 58 5f 0c 3f 6e 97 86 3d 65 91 8f be
       -0.04788083 0.54832983 0.06571852 -0.28040615
000210 28 6f 5b be 2f 05 bf be 44 05 68 3d 9c db a9 bc
       -0.21429121 -0.37308642 0.056645647 -0.0207346
000220 f6 cc c0 be b4 52 fa be ed e7 b3 3e 09 8d c9 be
       -0.37656373 -0.48891222 0.35137883 -0.39365414
000230 b8 81 c6 3d 15 e9 64 be 4a 67 93 3e 5b d8 22 be
       0.09692711 -0.22354539 0.2878974 -0.15902846
000240 ba de 39 3e 04 5b aa 3e 67 d2 8f be d9 11 08 3f
       0.1815137 0.33272564 -0.28090212 0.53152233
000250 07 d2 84 3d f2 aa c5 be 96 bc de be ca 48 ae 3e
       0.06485372 -0.38606983 -0.43503255 0.3403991
000260 c1 a9 13 3e 0c 8c 09 be 2f f3 f4 3d 49 50 3b 3d
       0.14420225 -0.1343233 0.11960446 0.045730863
000270 de 70 ed 3e 45 b6 f9 be c7 cd b6 3e 26 0a 13 be
       0.46375173 -0.48771873 0.3570387 -0.1435934
000280 23 a4 9f be 0c cf e6 3e b3 8f 28 3e 30 2d f0 be
       -0.31179914 0.4507984 0.16461067 -0.46909475
000290 7e fe ec bd ef 58 aa bd b5 11 21 3e f5 95 a2 be
       -0.11571978 -0.08317744 0.15729411 -0.31755033
0002a0 b5 e0 bf 3e 69 a1 59 3e 21 b7 c0 be b7 35 cb bd
       0.37476125 0.2125298 -0.37639716 -0.09922355
0002b0 f0 75 8c 3e 35 16 d2 be a3 81 f7 3e 16 f8 ce be
       0.2743373 -0.41032568 0.48341092 -0.4042365
0002c0 31 52 0a be 7e 46 c9 be e9 fe ae 3d 59 61 f7 3b
       -0.13507916 -0.39311594 0.08544714 0.0075494465
0002d0 fa fe c3 3e 20 1b 70 bd 21 4d fd 3d 29 71 9d bd
       0.3828047 -0.05861962 0.12368227 -0.07687599
0002e0 f3 1f a5 be 3c 64 b8 3e 48 c1 ac 3d 38 fc 8c be
       -0.32250938 0.36013973 0.08435303 -0.27536178
0002f0 b2 7a e3 bd b0 28 bb be ee 6c a5 3d 59 34 47 be
       -0.11107387 -0.3655448 0.08077417 -0.19453563
000300 68 cd d3 be 98 75 8f be 16 6c ed 3e 74 59 ce bd
       -0.4136765 -0.28019404 0.46371526 -0.100756556
000310 9d 72 1d 3e 42 bb a3 be 0e f2 25 3d ed 15 38 be
       0.15375753 -0.31978804 0.040514044 -0.17977114
000320 0e 4e 38 be 32 ac fb 3d d8 8d 9b 3e a9 f8 87 be
       -0.17998526 0.12288703 0.30381656 -0.265569
000330 3b 51 e4 be ff a8 8d 3e d3 b3 d6 bd f7 97 ea bd
       -0.44593224 0.27667996 -0.104835175 -0.11454766
000340 b9 54 ed 3e ca 8a 1f bd bc 09 3d be 59 be 94 be
       0.463537 -0.03895072 -0.18460745 -0.29051474
000350 d7 e0 7d be 22 a7 e9 3e 2e d8 a9 bd 65 ba b0 be
       -0.24792801 0.45635325 -0.08293186 -0.34517208
000360 70 7b 4c be c9 d0 d2 bb 6d 96 10 3e 3f 94 d4 3e
       -0.19968963 -0.0064335805 0.14119883 0.41519353
000370 dd d4 ff be be 6f 36 be 46 a3 00 bf 85 42 a6 be
       -0.4996709 -0.17816064 -0.50249135 -0.32472625
000380 dc 48 30 be 74 82 87 be b4 8a 9a be 50 42 63 3e
       -0.17215294 -0.26466715 -0.30183947 0.22193265
000390 c7 42 e4 3e 74 8e 83 3e 80 ac 96 3e 1a 01 9b be
       0.44582197 0.2569462 0.29428482 -0.30274278
0003a0 f2 d3 72 3e 19 13 b4 be e7 cb 01 bf 78 a9 fc 3e
       0.23713663 -0.3517082 -0.50701755 0.49348044
0003b0 b9 67 d0 3e 43 51 dc be b6 1f d4 3e db 3a 9d 3e
       0.40704134 -0.43030748 0.41430444 0.30708966
0003c0 66 2d 85 3c a2 fa 88 3e 34 7c be bd 6f 23 17 3e
       0.016257 0.26753718 -0.093010336 0.1475961
0003d0 f6 d1 d8 3e d4 75 66 be 4f 0b e5 3e d3 07 70 3e
       0.42347687 -0.22505885 0.4473519 0.23440485
0003e0 c4 d9 4c 3e e8 ee e7 bd 0d d5 ae be 14 d2 a5 3e
       0.20004946 -0.113248646 -0.3414692 0.3238684
0003f0 eb f2 a1 bd c5 c6 f4 be 38 b8 f4 3e 8e d6 d0 bb
       -0.07907661 -0.478079 0.47796798 -0.006373233

layer1.bias f4 [64]
000000 88 61 16 be 10 93 34 3e ad 88 3d 3d 3e 53 21 3e
       -0.14685643 0.17634225 0.046272922 0.1575441
000010 9c ad b5 3e d4 92 91 3e 47 69 1c be 5d 68 04 3e
       0.35484016 0.28432333 -0.15274535 0.12930436
000020 88 81 4e 3e 2d f9 cd 3e 13 e2 04 3f 91 69 b3 3e
       0.201666 0.4022917 0.5190746 0.35041478
000030 f9 71 5c be 0f 38 84 be fd e4 ac be a7 ce 20 3e
       -0.21527852 -0.2582402 -0.33768454 0.15703832
000040 44 a5 c1 bd 0f 54 b1 3d 8d 3c a0 be cc db 3d bd
       -0.0945535 0.08658611 -0.31296197 -0.046352193
000050 c3 d9 b8 3e 58 dd 05 3f 22 c4 92 3e 38 bf 82 3d
       0.3610364 0.5229087 0.28665262 0.06384128
000060 aa 13 89 be 12 2d 28 be 0f 00 d4 3e 9a 98 8a 3e
       -0.26772815 -0.16423443 0.41406295 0.2706955
000070 0d cf 7e 3d 09 d7 9e be b1 66 dd bd e3 38 86 be
       0.062209178 -0.31023434 -0.108106025 -0.26215276
000080 cd ad 30 3d fb af 5c 3d df bc 5a 3e f9 f2 3d 3e
       0.0431345 0.053878766 0.21361111 0.18549718
000090 7d 31 a8 be a9 ac b8 3e e2 7b 0f be d4 11 5c be
       -0.32850257 0.3606923 -0.14012101 -0.21491176
0000a0 a7 cf c0 be 00 ff 56 be a0 e3 30 3e fa 11 41 be
       -0.37658426 -0.20995712 0.17274332 -0.18854514
0000b0 76 ba b2 3e 30 aa 46 be 4a d7 05 3d 74 9a 2c be
       0.34907883 -0.19400859 0.03267602 -0.16855794
0000c0 83 c8 0a 3f 65 0c a1 be e8 95 8a 3e 0e 78 56 be
       0.54212207 -0.3145477 0.27067494 -0.20944235
0000d0 4c c9 b3 be e5 06 56 3e 19 22 e1 bd d4 7a ae be
       -0.35114515 0.20901068 -0.10992832 -0.34078085
0000e0 2e 87 a8 3e 09 b9 99 be 5f be e4 3e e7 8e 89 be
       0.32915634 -0.30023983 0.44676492 -0.26866838
0000f0 eb 86 ad bd 39 07 32 be 60 27 f1 3e 6a ee 50 be
       -0.08472999 -0.17385568 0.47100353 -0.20403448

layer2.weight f4 [32, 64]
000000 65 e8 55 3e e5 ad 34 bd a1 b4 a5 3d c9 c0 c6 3d
       0.20889433 -0.04411115 0.08091093 0.097047396
000010 49 65 de 3d 20 b0 73 bc f9 b0 1a 3e f5 c7 1e bd
       0.10859162 -0.014873534 0.15106572 -0.038764913
000020 43 e7 95 bd 51 bf 96 3c 6a db 4c 3e ff 08 18 bd
       -0.073195 0.018401774 0.20005575 -0.037117954
000030 59 89 05 3e f4 96 07 be f5 c2 14 3e 5b 25 1e be
       0.13040675 -0.13241178 0.14527495 -0.15443937
000040 d7 f6 43 3e c4 13 b7 bc 5c f9 0f 3e 4a 70 05 be
       0.1913713 -0.022348292 0.14059967 -0.13031116
000050 d0 47 b6 bd a1 20 14 3e 0f 21 2d be 94 7e 02 3d
       -0.08900416 0.14465572 -0.16907142 0.031858996
000060 51 6a cc bd 5e 6f fc bd 66 1e 1c bd 93 8d 34 3e
       -0.09981216 -0.12325929 -0.038114928 0.17632131
000070 f4 f4 34 bd 3d 88 e1 bd 25 ee f6 3c 2a 51 ab 3d
       -0.044178918 -0.110123135 0.030142853 0.0836509
000080 21 3c 09 be 67 4e 4c 3e 60 54 00 be ce c4 31 be
       -0.13401844 0.19951783 -0.12532187 -0.17360231
000090 04 0e 0b 3e b6 96 10 3e 4a 61 ad bd 5d 92 99 bd
       0.13579565 0.14119992 -0.08465822 -0.0749862
0000a0 7e 54 6b 3d 53 29 1d 3e 86 41 b7 3d ed c7 2d be
       0.057453625 0.15347795 0.089480445 -0.16970797
0000b0 5c 0d 2b be 82 6a e9 bd d1 4b 31 3d 30 1f 34 3e
       -0.16704315 -0.11397268 0.043285195 0.17590022
0000c0 5b 94 b2 3d 70 c5 86 bd ab 67 9a 39 36 bf ad bc
       0.08719703 -0.06580627 0.00029450408 -0.02120934
0000d0 d3 19 e9 ba c5 27 fb 3b 36 09 12 be 57 47 a6 3c
       -0.0017784185 0.007664653 -0.14261326 0.02029769
0000e0 97 bb 47 3d 68 b5 29 be 94 17 a3 3c b2 f3 83 bd
       0.048762884 -0.16573107 0.019908704 -0.064429656
0000f0 45 5d 74 bc cd cb 09 3e 14 8b e4 bd 71 7d 2b 3e
       -0.014914815 0.1345665 -0.111593395 0.16747071
000100 c9 e3 d0 bd 2e de 39 3d 4e 00 31 3d b1 d9 f3 bd
       -0.101996966 0.045377903 0.04321318 -0.11906756
000110 a7 c6 39 bd dd 90 b1 3d f7 1c 77 3d eb 4b 8a 3d
       -0.045355465 0.086702086 0.060330357 0.067527615
000120 c3 ac 26 be 0d 6f be 3d 14 58 34 bd 13 1f 82 3d
       -0.16276841 0.09298525 -0.04402931 0.06353583
000130 d6 8d ff bd c0 2c c9 3c 4c 68 4d bd 69 f9 e6 bd
       -0.12478225 0.024557471 -0.050148293 -0.1127804
000140 51 95 5b bd 9f 64 73 3d 37 40 1d 3e 87 bf 32 be
       -0.053609196 0.05942213 0.15356527 -0.17455874
000150 30 85 ad 3c 2c 58 95 bc 2a 68 d1 3d 3d 55 0e 3d
       0.021181673 -0.01823052 0.10224946 0.03474926
000160 e2 50 24 bd 16 bc 99 bc 2d 27 45 bd e2 ae 08 be
       -0.0401162 -0.018766444 -0.048133064 -0.13347962
000170 fd ef e8 3c 8c fd 95 3c f0 e2 01 3d ce 2d da bd
       0.028434748 0.018309377 0.031710565 -0.10653268
000180 fa 59 24 3e 82 32 39 3e d9 0c f6 bb f6 81 bc bc
       0.16049948 0.18085673 -0.007508856 -0.023011189
000190 bf fe 2c bd 38 aa ff bd 61 4a 44 be fa 0c 30 be
       -0.042235132 -0.124836385 -0.19168998 -0.1719245
0001a0 d0 76 ad bc 9e 69 78 3c e7 04 45 bd 23 fc 91 3d
       -0.021174818 0.0151619 -0.04810038 0.071281694
0001b0 ea 53 0f 3d db 8a 22 3e 15 79 f4 3d c7 ef b3 bd
       0.034992136 0.15873282 0.11937157 -0.08785968
0001c0 fa 9f 1a 3e 2a 8b 71 be 6f c0 3f 3e 3a 8f 8f 3c
       0.15100089 -0.23588243 0.18725751 0.01752435
0001d0 94 ee f9 bd 21 b7 ca 3d 58 93 8e 3a 6f 09 4b 3e
       -0.12203708 0.0989821 0.0010877652 0.19827817
0001e0 f4 33 08 3e 9c 42 a1 3b 67 a4 2d 3e d6 52 ec bc
       0.13301069 0.0049212705 0.16957246 -0.028848093
0001f0 94 16 51 bc 76 f6 fa bd 38 9c 9b bd 93 2d a8 3d
       -0.012761731 -0.1225404 -0.07598156 0.082118176
000200 47 72 bd bd b5 36 86 3d 0b ea ad bc 5f 76 e7 3d
       -0.09250312 0.06553403 -0.021229764 0.11301874
000210 17 b2 0c be 65 91 d2 3c 05 60 2f 3d 11 1b 13 be
       -0.13739811 0.025704095 0.04281618 -0.14365794
000220 b7 3a 9d bc bf b7 b1 3c 8a 50 63 3d 14 91 20 bd
       -0.019193036 0.021694062 0.05549673 -0.039200857
000230 a0 ed 23 be c4 5a ef 3d 84 79 89 ba 6c 7c 0f be
       -0.16008615 0.11687234 -0.0010488485 -0.14012307
000240 a3 45 8d 3d da 77 e3 3c 3f 44 50 3d 86 8f ce bd
       0.06898048 0.02776711 0.050846335 -0.10085969
000250 fc df 9b 3d b5 91 ff bd f1 28 0b 3e 18 4a e5 3c
       0.07611081 -0.12478963 0.13589837 0.027989432
000260 2d fc 5f be 24 4e d5 3c a5 99 69 bd d1 ba b9 3d
       -0.21873541 0.026038237 -0.057031292 0.090688355
000270 91 0d 9f bd 04 fb be 3d a2 cb db 3d 8f 41 cd bd
       -0.077662595 0.09325221 0.10732199 -0.1002227
000280 03 9e 89 bc bb c5 3e bd f1 f2 25 bb 17 64 d0 bd
       -0.016798979 -0.04657529 -0.0025321806 -0.101753406
000290 58 d1 f6 bd e8 be fa bd b6 77 08 be 01 a1 64 3d
       -0.12051648 -0.12243444 -0.13326916 0.055817608
0002a0 d0 02 dc 3d 9d b1 94 bd 3a 79 7a bc 08 0c 03 be
       0.10742724 -0.072604395 -0.015287692 -0.12797558
0002b0 3b 4a 7b 3b ac 3c e9 bd af fd 23 3d ee 5d 42 bb
       0.0038343805 -0.11388525 0.040036853 -0.0029658037
0002c0 0f b7 1e 3d 6f a2 65 be ae 32 f5 3c 05 a4 35 bd
       0.038748797 -0.22425245 0.029931393 -0.044345874
0002d0 0e 58 89 bd 82 58 b4 3a 22 be 20 bd ed b4 48 bd
       -0.06706248 0.0013759288 -0.039243825 -0.04900067
0002e0 bc 1f c4 3d ca 8b 81 bd d3 6e fa 3d 47 94 ab bd
       0.09576365 -0.06325491 0.12228169 -0.08377891
0002f0 e3 2a 4c 3c 7a 52 e3 3c 43 a3 fd bd fe 7a d3 bc
       0.012461397 0.027749289 -0.12384655 -0.025815483
000300 24 7a cb 3c 27 5a 81 bd 8b 46 41 3d 01 39 25 bd
       0.024838515 -0.06316023 0.047186416 -0.040337566
000310 1a 8b 31 3e 97 79 23 3d 41 9e 08 be f9 df 0f be
       0.1733822 0.03991088 -0.13341619 -0.14050283
000320 66 a5 da 3c 3c c1 93 bc 40 5c 13 3d c5 70 1f 3e
       0.026690196 -0.018036477 0.03597665 0.15570362
000330 04 4d c2 bb c7 3d fe bd b7 d6 f7 3d a5 28 1a 3e
       -0.005929591 -0.12414127 0.121015005 0.15054567
000340 de b4 9c bd f3 56 27 3d 69 73 69 bc f4 af ff 3c
       -0.07651685 0.040854406 -0.014248707 0.03121183
000350 e3 aa 39 bc b4 5a 65 bd 48 88 95 bd d7 d0 c5 3d
       -0.0113322465 -0.055994704 -0.07301384 0.09658974
000360 cd 03 e4 bc 5a 8b c5 bc c4 ac 17 3d 6b 4a ed 3c
       -0.027833844 -0.0241143 0.037029997 0.02896615
000370 00 42 27 3e 03 46 e7 3d 0c f9 ce bd a2 bd a2 bd
       0.16333771 0.112926506 -0.10106096 -0.07946326
000380 92 59 2e 3d f1 53 e6 bd eb 78 e8 3c cf d4 e3 bd
       0.04256589 -0.11246479 0.02837797 -0.111245744
000390 0f 9b ff 3d aa 49 ae bd 6e 6f 80 3d ae b0 52 bd
       0.12480747 -0.08510144 0.062712535 -0.051438026
0003a0 22 d8 0c bd 21 22 85 3d 15 4e 2a 3e 09 70 af 3d
       -0.034385808 0.0650065 0.16631348 0.08566291
0003b0 ea ec 25 be e0 6e 70 3e 57 dd 12 3d 4e d1 a8 bd
       -0.16203657 0.23479795 0.035855617 -0.08243047
0003c0 5e 46 28 3e b7 f2 c9 3d 10 1f 1f be cc d1 53 be
       0.16433093 0.09860747 -0.15539193 -0.206855
0003d0 7e 53 9c bd 7e 28 15 3e ac c9 07 3e 07 5d 8f 3d
       -0.07633112 0.14566228 0.13260525 0.070001654
0003e0 37 a8 79 bc b2 5e c6 3d 31 8e a5 bd 40 e8 d9 3d
       -0.015237859 0.096860304 -0.080837615 0.10640001
0003f0 71 ab f9 bd 51 2b 76 bd aa af 2b be 9b 83 e7 bd
       -0.12190903 -0.060099903 -0.1676623 -0.113043986

layer2.bias f4 [32]
000000 a9 ba 3a bd 78 b6 2c 3e 23 ca 0a 3e 74 4e 1c 3e
       -0.04558817 0.16866481 0.13553672 0.15264302
000010 77 25 1a 3d dd 40 c1 3d 1f 50 a9 bd c7 48 f9 bd
       0.037633386 0.094362 -0.08267235 -0.12172084
000020 6a ba 18 3d 31 3d f2 bd 57 11 f8 3d e9 a6 05 3e
       0.037287153 -0.118280776 0.12112682 0.13051952
000030 ec a2 57 bb f0 c3 7b 3d 83 ce 55 3e c3 66 c2 bd
       -0.0032903505 0.061466157 0.20879559 -0.094922565
000040 f1 9b 23 3e 84 31 b4 bd a4 4a a3 bc 74 d3 1c bd
       0.15977456 -0.08798507 -0.019933052 -0.038287595
000050 d0 10 c4 3d 2e 87 3c bd 94 95 fb bd 55 05 12 bd
       0.09573519 -0.046027355 -0.12284389 -0.035649616
000060 3f d3 83 bc 2a 59 e1 bd 9c 8b 11 3e 4a 72 0d 3d
       -0.01609194 -0.11003335 0.14213413 0.034532823
000070 8a bc fc bd 3a 0c e8 bc 72 7c 74 3c 46 90 02 3e
       -0.123406485 -0.028326143 0.014922248 0.12750348

output_layer.weight f4 [7, 32]
000000 6f 81 6b bd 89 e3 55 3e 5a 9c f5 bc 1a 11 65 be
       -0.057496484 0.20887579 -0.02998178 -0.22369805
000010 e7 56 2c 3c f2 14 3f be 4a 7a 71 3e 22 a6 88 3e
       0.010518766 -0.18660334 0.23581806 0.2668925
000020 69 d0 2e be 09 3a 15 3e 84 db 68 3e 25 11 f8 bd
       -0.1707169 0.1457292 0.22739989 -0.12112645
000030 d6 e4 6e be 55 45 31 3e 98 05 e0 bd f0 87 16 3e
       -0.23329481 0.17311604 -0.10938567 0.14700294
000040 1e e1 91 3e 9e 0d 77 3c f3 6a 35 3e b4 ee f2 bc
       0.28492063 0.01507893 0.17716579 -0.029654838
000050 2d 23 a6 bd b9 91 5e 3d 95 cf 3d bd 6d c0 00 be
       -0.08112178 0.05433819 -0.046340544 -0.12573405
000060 be a1 10 3e 1a 50 82 be 49 7f 09 be 54 e1 07 3e
       0.141242 -0.25451738 -0.13427462 0.1326955
000070 ac 3b 8c be f5 70 59 3e c6 51 ed 3d 33 45 09 3b
       -0.27389276 0.21234496 0.11587863 0.0020945787
000080 4f ec 65 3e 30 a7 fe bd ef 61 81 3d d3 04 0f be
       0.22453426 -0.12434232 0.063175075 -0.13966684
000090 9b 60 27 be b3 a6 c8 3d c5 0e 41 bd 2e da f9 3c
       -0.16345446 0.0979742 -0.047133226 0.030499544
0000a0 a3 99 d1 bd 5c 98 0c 3e cb 19 0e 3e 0b 26 21 be
       -0.10234382 0.13729995 0.13877027 -0.15737168
0000b0 5e 72 a0 3d c5 20 8a be 0f 23 60 3e 51 6f 11 be
       0.07834314 -0.26978126 0.21888374 -0.1420262
0000c0 9a 93 30 be df 48 84 3d 09 99 df 3d a7 6c 5f 3e
       -0.17243806 0.064592116 0.10917861 0.21818791
0000d0 83 19 61 3d 0a 5a 66 be e9 d8 1b bd 57 38 68 be
       0.05495597 -0.22495285 -0.03804866 -0.22677742
0000e0 06 08 75 bb ac 8e 6b 3d 37 21 69 bd 22 91 69 3e
       -0.0037388816 0.05750911 -0.05691644 0.2280927
0000f0 f5 17 49 3e 53 fa 61 be 0f 32 1a bd 5f 3a 99 bd
       0.19638045 -0.22068147 -0.037645396 -0.074818365
000100 05 1c ff bd 36 f5 89 be 71 48 6e be 80 09 d4 3d
       -0.12456516 -0.26944894 -0.23269822 0.103533745
000110 8b 53 fb 3c 8a c6 c4 bd af f4 14 be 0c 03 10 be
       0.030679485 -0.09608181 -0.14546464 -0.14063662
000120 30 0d d1 bd 8c 77 9e bc 4e f8 80 be 31 37 59 3d
       -0.102075934 -0.019344114 -0.2518944 0.05303115
000130 cd 0d 6f 3e b7 af de bc 15 4f 83 3d ae fc 80 3b
       0.23345108 -0.027183397 0.06411568 0.0039363718
000140 84 10 74 be 4a 56 8a 3e ea 69 d9 bd f3 03 b4 bd
       -0.23834425 0.27018958 -0.10615905 -0.08789816
000150 e1 3c c9 bd 99 5c ec bd bf 49 c4 bd 6f 4f a2 3d
       -0.09826065 -0.11541099 -0.095843785 0.07925307
000160 b7 39 1d be 02 0c 09 3e e4 05 58 3e 88 aa 1f 3e
       -0.15354048 0.13383487 0.21095997 0.15592396
000170 02 63 53 bd 2a 2e 4b 3e 19 49 62 be e0 52 13 3d
       -0.051608093 0.19841829 -0.22098197 0.035967708
000180 b1 37 6b 3e 6d 6c ba 3d 99 df ae 3d 73 58 a8 bd
       0.22970463 0.09102712 0.085387416 -0.08219995
000190 0b 81 e3 bd 14 d2 8f be 0e 9b ec 3d e9 92 05 be
       -0.11108597 -0.28089964 0.11553012 -0.13044323
0001a0 67 cf 92 3e 4a 3f 86 bd 37 06 8d be 1c c3 34 3e
       0.2867386 -0.0655504 -0.27543804 0.17652553
0001b0 89 c2 db 3c 75 77 93 3e 1e c5 18 3e 14 de bc 3d
       0.02682616 0.28802076 0.14918944 0.092220455
0001c0 eb d7 16 3d 90 ee 47 bc ae 26 37 3d 15 e1 fc bd
       0.03682701 -0.012202874 0.044714622 -0.123476185
0001d0 62 e6 4f 3e 04 a1 91 be d1 43 63 bd 04 12 e0 3d
       0.20302728 -0.28443158 -0.055484597 0.10940936
0001e0 00 36 df bd 0f 08 73 3e f4 2b a0 bd 5a 55 b1 bd
       -0.108989716 0.23733543 -0.078208834 -0.08658858
0001f0 c7 c1 cd 3d 2d 0b 3c be ca 9a 20 be be 6f 1f be
       0.10046726 -0.18363638 -0.15684047 -0.1556997
000200 bd d8 ed 3d bd 39 33 bc 49 32 90 3d 5c 86 5d 3e
       0.11613605 -0.010939059 0.07040841 0.21633285
000210 40 3c 1c 3b 8b 74 a7 bc 9c 7d 64 3c ed 2c aa 3d
       0.0023839623 -0.020441314 0.013945963 0.0830935
000220 f8 71 17 3e aa c8 d8 3d 38 0f 3c 3d b1 bc 87 be
       0.1478957 0.10585149 0.04591295 -0.26511148
000230 9d 8f 10 be e0 68 81 3c af bc 4e be eb 3e cc 3d
       -0.14117284 0.015797079 -0.20189165 0.09972938
000240 dc 7d 51 be e4 fc 48 bd 52 27 5a be b7 6f ad 3d
       -0.20458168 -0.0490693 -0.21304062 0.084685735
000250 1a e3 17 3e d7 2a 0f 3d c5 27 cd bd a0 39 2f 3e
       0.14832726 0.034952965 -0.10017351 0.17111826
000260 c3 57 89 3d 77 41 86 be 7e 8f 14 be a0 2d 4b 3d
       0.06706192 -0.2622182 -0.14507863 0.04960406
000270 21 7c f1 bc 5b c1 54 be 97 f0 29 3e 16 04 21 3e
       -0.029478135 -0.20776884 0.16595684 0.15724215
000280 4b 1b b1 3d f3 2e 62 be c9 bf e6 3c 02 bc 33 be
       0.08647784 -0.22088222 0.028167622 -0.17552188
000290 16 12 0d be 8d 41 e2 3c d5 7f 0f bd 8d fe 57 be
       -0.1377643 0.027619148 -0.03503402 -0.21093197
0002a0 a7 7f 43 3e 1b 3f 8f 3d cb b8 a6 bd e2 e1 74 3e
       0.19091664 0.06994458 -0.08140715 0.23914292
0002b0 f2 34 5b 3e 48 fe 4e 3e 2a fb 0f 3e f8 f1 fc 3d
       0.21406916 0.20214188 0.14060655 0.123508394
0002c0 d2 88 33 bd 2c 89 f6 3d ea 74 39 bd 0b cc 5e 3e
       -0.043831654 0.12037882 -0.045277514 0.21757524
0002d0 cc b0 3c 3c 21 7f 55 bd 6f b3 33 3e f5 0b 27 3e
       0.011516761 -0.052123193 0.17548917 0.16313155
0002e0 89 00 99 3d a5 d7 42 3d 1e fc 37 3d 7d 6c 38 be
       0.07470805 0.047568936 0.044918172 -0.18010135
0002f0 68 fa 5c 3e 1c 3d 30 be ad 32 47 be a9 b7 7d be
       0.21579897 -0.17210811 -0.19452925 -0.24777092
000300 4e 19 0b 3e c4 3d 14 3e c8 8f 5d 3e de 4f d3 3c
       0.13583872 0.14476687 0.2163688 0.02579492
000310 82 a8 04 3c a8 03 18 be 91 45 20 3e 8a 5a 87 3e
       0.008096816 -0.14845145 0.15651537 0.26436263
000320 6f 96 5d be 31 0d b9 3c a7 94 fd bc 12 78 63 be
       -0.21639417 0.022589298 -0.030954672 -0.22213772
000330 ea c2 72 be 95 21 8f bd b6 fc fb 3c d0 5e c2 3d
       -0.23707166 -0.06988827 0.03076015 0.0949074
000340 59 21 92 3e ad 23 4f 3e 52 7c 92 3e ac ad 31 be
       0.28541067 0.20228453 0.28610474 -0.17351407
000350 13 74 3f 3a 76 18 8a 3d a7 a4 11 be 28 7d 8c be
       0.0007303368 0.06742947 -0.14222966 -0.27439237
000360 94 10 27 be a8 ba 77 3d 76 3c d7 3d d4 5f fa bd
       -0.16314918 0.060480744 0.10509579 -0.12225309
000370 0b 51 61 be f1 d3 7f 3e be ed 0b 3e 3a b7 29 3e
       -0.22003572 0.24983193 0.1366491 0.16573802

output_layer.bias f4 [7]
000000 f7 c2 29 be d4 8f bb 3d fb 11 f0 bb 0a fb ca bc
       -0.1657828 0.091582924 -0.007326362 -0.024777908
000010 86 ab 1c 3d 26 6d 20 be 67 d3 76 be
       0.038249515 -0.15666637 -0.24104081
